traffic_nn2.pth (torch, 40496 bytes, 5 tensors)

fc1.weight f4 [128, 8]
00000000: fff4 babd 9cab d93c 22db dd3d 85e7 28bc
00000010: 7b41 44bd 6b2f 993e 22a4 2dbd 20ef fe3a
00000020: e19e 78be dd1f afbe 978d 99bd 2d53 b03d
00000030: 52ef 5dbb 619d debd cc64 95be cd9e 46be
00000040: 8279 873e a605 0cbe 8968 c03e 04d4 9ebd
00000050: 2d2a 923e 9d13 893e 8f60 76be a810 23be
00000060: b504 823e 2a44 4b3e 483b 36be 24bf 103e
00000070: dfee 14bd 073f 9dbd 18d0 08be a268 9fbc
00000080: 725d 16be 4114 6f3e 2bd0 46be 1da5 52be
00000090: 0e13 853e a0b6 2ebe d87a 573d e8d0 f0bd
000000a0: 4e54 893e 446b 85be 1165 923e 3b86 f7bc
000000b0: 33e7 a6bc 1eb8 0d3d 751c 86be d267 a7be
000000c0: 5bf4 38bd 2b82 86be 08db efbc bd05 99bd
000000d0: 3ba4 58be f3df 7dbe 2b4e 9abe 1e7e b7bd
000000e0: dc25 7c3e 70d9 8e3e 020d b53d b166 85be
000000f0: 07c0 f03e a63a 563e f113 aabc c759 893e
00000100: 1449 65be 048b 69be 4b48 9b3c 39f1 0b3d
00000110: d866 2c3e 864e 3c3e 7ed0 1abd c305 773e
00000120: 6330 a83d e7df 67be 1415 a13e 6909 853e
00000130: ab01 4cbe 69de 113e 965e d43d 1407 a73e
00000140: 78c3 7f3e 5a2b 42bb 0edc 9a3e 3c5a 1c3e
00000150: 497e 2e3e 7a95 b43d e66b 2b3e 9a5b 2dbe
00000160: 3290 8a3d e1a0 d5bd 9843 1abe 3739 7d3b
00000170: 5f23 413e cf81 88be d21c 69be b19b a53d
00000180: 5989 683e c97e 8a3e f3e6 41be f1c0 83be
00000190: 018f 3e3e 3063 033d be55 ad3e 1af5 973e
000001a0: 725a ca3e 3025 1ebe 9dda 2dbe bc1d 82be
000001b0: d67f aabe 3cd2 1dbd 1601 b03e 0477 a43e
000001c0: da60 ccbd 4a82 813e f05a b43e 5fd6 273d
000001d0: 3dce db3d 2288 543e 6931 ac3e 25f1 cebc
000001e0: fa8b 843e 2334 47bd 8873 dc3c 6297 143e
000001f0: f122 a13e a124 cdbd 9a30 c4bd ac1f 23be
00000200: c38c 9f3e 1083 653e 613f 623e 9687 943e
00000210: 4ef5 dd3c ba87 b43d 8989 853e 6738 9a3d
00000220: 0949 c73c 3b78 153e 0605 3e3d 480e 2e3d
00000230: 0360 1d3e 42e3 ac3e 22e6 22be f93e 93be
00000240: aa5e 30bc 1049 c2bc 6942 d4bd e839 993e
00000250: 1c48 5fbb a1ab ac3e a31c 423e 7220 cd3d
00000260: a620 0d3d 3bb7 953e 3bed eb3d be97 98be
00000270: 512d 0a3e 2b49 d53d 1035 6f3d 6a1d c1bd
00000280: 4c06 3f3e 6e30 cf3d d198 b83d 9fc9 383e
00000290: 55fd 333e a031 623e 64f6 c53e 0199 0abe
000002a0: 6923 e73c 4d3a ba3e 5b63 12be 4c64 913d
000002b0: 9ba6 813d 9717 6d3e de41 b8be 9ab2 d0bd
000002c0: 4783 b13e 86a2 fabd ab26 733e 3745 26be
000002d0: 653c 133e f2ba a73d d954 04be 6e7b a7be
000002e0: 2bcc 37bd e999 0abb f4cf 29be 0523 a13e
000002f0: 471c 3f3e 64c2 2abe 5a79 4fbe 8bad 813e
00000300: 7441 fc3d 660b c3bd 6f51 80bd 3e39 9e3e
00000310: 0c7c a33e afce 8b3e 94ac d73c c7fe aa3e
00000320: c961 6f3e e3af a5bd b9da 8abe 23d8 a7bd
00000330: d1ed 93be a802 8e3d a7c5 8a3e fbe1 b63c
00000340: 1eda 453e 9231 ec3c 3326 053d 3d46 d23d
00000350: 02bd 123e 5f0d 83be 8828 96be 11bd 3f3e
00000360: dadf 823e 6b83 dabd 328c 633c 1808 6cbe
00000370: f89c 92be 1c06 84be 8ae3 afbe af3b 91be
00000380: 7dc1 f0bd 616e 6b3e 98ed 653e 285e ce3e
00000390: cdb2 7dbe b3b7 083e dcda 7d3d dd7c 883d
000003a0: 4139 5a3e 963c 81bc 77e9 c43d d3db abbd
000003b0: a200 903b a0aa f13c 7a5e 6dbc bca1 3cba
000003c0: c6ba 64be dae6 a1bc ec86 1f3e 946b 833e
000003d0: a8ca c83e fb92 9f3e 1a1d 9e3e c111 f2bd
000003e0: 15e4 113e a1da 4dbe 78a5 70be 41c9 833e
000003f0: 9bb0 a63d c31c a23c d14f 353f b4a8 c73d
-0.091287605 0.026571088 0.10832812 -0.010309105 -0.04791401 0.2991899 -0.042392857 0.0019449927
-0.24279357 -0.34203997 -0.07497709 0.086096145 -0.003386457 -0.108698614 -0.29178464 -0.19396515
0.2645989 -0.1367403 0.37579754 -0.077552825 0.28547803 0.26772776 -0.24060272 -0.15924323
0.25394216 0.19850221 -0.17796052 0.14135414 -0.036360618 -0.07678037 -0.13360631 -0.019459073
-0.14684084 0.2334757 -0.19415347 -0.20570798 0.259911 -0.17061853 0.052607387 -0.11758596
0.26822132 -0.260584 0.28592733 -0.030215373 -0.020373916 0.034599416 -0.26193586 -0.32696396
-0.04515491 -0.26271185 -0.029279247 -0.074717976 -0.21156399 -0.24792461 -0.30137762 -0.08959602
0.24623817 0.27900267 0.08840372 -0.2605491 0.47021505 0.2092081 -0.020761462 0.26826307
-0.22391158 -0.22806937 0.01895537 0.034165595 0.16836107 0.1838933 -0.03779649 0.24123292
0.08212354 -0.22644006 0.31461394 0.25983742 -0.19922511 0.14244999 0.10369603 0.32622588
0.24976909 -0.002962789 0.30246013 0.15268797 0.17040361 0.08817573 0.16740379 -0.16929474
0.06765784 -0.10431076 -0.15064847 0.003863884 0.18861149 -0.26661536 -0.227649 0.080863364
0.22708644 0.27049854 -0.18935756 -0.2573314 0.18609239 0.032077014 0.3385448 0.29679185
0.3952213 -0.15443873 -0.16977926 -0.2541331 -0.33300656 -0.038530573 0.34375829 0.32122052
-0.099794105 0.25294715 0.3522563 0.040975925 0.10732696 0.20755056 0.33631447 -0.025261471
0.25888044 -0.048633706 0.026910558 0.14510873 0.3147197 -0.10016752 -0.095795825 -0.1593005
0.3116208 0.22413278 0.2209449 0.29009694 0.02709451 0.0881495 0.26081493 0.07530289
0.024326818 0.14596646 0.04639151 0.04249409 0.15368657 0.33767134 -0.15908101 -0.28758982
-0.010764757 -0.02371648 -0.10364229 0.2992699 -0.003407008 0.33724692 0.18956237 0.10015954
0.034454964 0.29241356 0.115198575 -0.2980327 0.1349385 0.10414346 0.058400214 -0.094294384
0.18654746 0.10116659 0.090135224 0.18045662 0.17577107 0.22089243 0.38664544 -0.13534929
0.028215127 0.36372605 -0.14295714 0.07099208 0.063306056 0.2315353 -0.35987753 -0.101903155
0.3467047 -0.1223803 0.2374522 -0.16237341 0.14378507 0.08189954 -0.12922992 -0.32711357
-0.044872444 -0.0021148867 -0.16583234 0.3147203 0.1866313 -0.16675717 -0.20261136 0.25327715
0.12317172 -0.095236585 -0.06265532 0.30903047 0.31930578 0.27306125 0.026327409 0.33397505
0.23377146 -0.08090188 -0.27119997 -0.08195522 -0.28892377 0.069341004 0.27103922 0.022324553
0.19321486 0.02883223 0.032507133 0.10267303 0.14329913 -0.2559614 -0.29327798 0.18724467
0.2556141 -0.10669597 0.013888406 -0.23049963 -0.28635383 -0.2578591 -0.34353286 -0.28365847
-0.11755655 0.22991325 0.22453916 0.4030621 -0.24775238 0.13351326 0.0619763 0.06664441
0.21310903 -0.01577596 0.096148424 -0.083915375 0.0043946067 0.029500306 -0.014487857 -0.0007195731
-0.22336873 -0.019763399 0.15578812 0.25668013 0.39217114 0.31166825 0.30881578 -0.118197925
0.14247163 -0.20102932 -0.23500621 0.25739482 0.081391536 0.019789105 0.70824915 0.097489744

fc1.bias f4 [128]
00000000: 6531 b03e 43d1 aabe af35 7e3e 5411 503e
00000010: 3d98 d83e 8f06 94bc 40b9 4cbd 5053 59be
00000020: 6a72 0b3e 5fd6 1f3e 2884 c63e 5638 863e
00000030: 78b5 933e f323 263e 011b 753e 0bf4 1d3b
00000040: b537 b9be f82e 1c3e 5579 9e3e 9c25 3dbd
00000050: eca8 163e 0408 773d 23b8 933d 2f5c b4be
00000060: 7a32 293e fc43 6dbe 5cc5 913e 5f94 ca3e
00000070: fc80 1eba 5cda 183e 47d4 103e 6ee5 32be
00000080: 4dcd 053d ac43 c93e cc48 83be 84bb 253e
00000090: 9dcd 303e dad5 3a3e 7e60 0cbe 3717 b03e
000000a0: a532 2d3e 67c9 a83e 42e5 b23e fefb 803d
000000b0: a21f 7ebe 0843 b0be d8e9 c33e 58b8 913e
000000c0: 1899 d13e 81a1 2bbe fd0d 32be 41fc 163e
000000d0: 39fd 9b3e 5a5d 78be 09ea 883e f638 c2bd
000000e0: c5e6 e93c 763d 66bd 5f52 aebe e34b 1abd
000000f0: 646a 5cbe 742e 163e 67a1 083e bbb0 933e
00000100: 27be 6bbc 5e14 4c3e ff97 cd3d dc8c b43d
00000110: 048d cb39 730f b63d 3c7a 893e 7eeb 533e
00000120: e5ad 173e 09a5 c53e d944 17be 7c34 b0be
00000130: e9b7 7f3d 057e 1e3e 61fb 56bd 1b13 653d
00000140: 8b6f 5e3e 77dd 533e 1a8d b1bd 8852 1abe
00000150: 8c4d 143e 136a 983e a189 bc3e ba84 bbbe
00000160: faf2 663e ab50 983e 3fb0 a0be 09e2 62be
00000170: beec 0f3d bd6a 883e 942e 94be e6bf ba39
00000180: 2425 0f3e c186 87be 34a5 393e f143 ee3d
00000190: 95ec e5bd 920d 5cbe e02e 93be 35cd eabc
000001a0: 5a65 ff3d ef73 303e 3cf4 dfbc 2d83 ce3e
000001b0: 5d70 a23e 67b6 7f3e 5e66 453e d76e 71be
000001c0: b874 05bd 6300 8cbd 9d7d 163e 8235 ecbd
000001d0: 6727 2d3e 2e47 2abe 0859 a73e 8282 6cbd
000001e0: fda4 9d3e c62d 953e f675 5f3e 9bf6 423e
000001f0: 8b27 ccbd 0390 be3d 20ce a33d b412 d73d
0.34412685 -0.3336278 0.24825166 0.2031911 0.4230365 -0.018069534 -0.049981356 -0.21223187
0.13617864 0.1560912 0.38772702 0.26214856 0.28849387 0.16224651 0.23936082 0.002410176
-0.36175314 0.15252292 0.30951944 -0.046178445 0.14712876 0.06031038 0.07212856 -0.3522658
0.16523162 -0.23170465 0.28470886 0.39566323 -0.0006046442 0.14927047 0.14143477 -0.17470333
0.032666493 0.39309442 -0.25641477 0.16184813 0.17265935 0.1824564 -0.13708684 0.34392712
0.1691385 0.32966158 0.34940535 0.06298064 -0.24816754 -0.3442614 0.38264346 0.28460956
0.40937114 -0.16760828 -0.17388149 0.14744665 0.3046663 -0.24254361 0.26741055 -0.09483521
0.028552422 -0.056210957 -0.3404722 -0.037670027 -0.2152496 0.14666158 0.1334282 0.28845772
-0.014388598 0.19929644 0.100387566 0.08815929 0.00038824242 0.088896655 0.2685107 0.20695302
0.14812429 0.38602474 -0.14772357 -0.34415042 0.06243125 0.1547776 -0.052485827 0.055926424
0.21722238 0.20689951 -0.08669491 -0.15070546 0.14482707 0.29768428 0.36823753 -0.366247
0.22553626 0.29749045 -0.31384465 -0.22156538 0.035137884 0.26643935 -0.28941786 0.0003561966
0.13979012 -0.26469997 0.18129426 0.116340525 -0.11226765 -0.21489552 -0.287467 -0.028662303
0.12470503 0.17231725 -0.02733814 0.40334454 0.3172635 0.24971925 0.19277331 -0.23577438
-0.032582015 -0.06836011 0.14696355 -0.11533643 0.16909562 -0.16628715 0.32685113 -0.05774165
0.3078994 0.29136485 0.21822342 0.19039385 -0.0996848 0.09304812 0.079982996 0.10501614

fc2.weight f4 [64, 128]
00000000: 9901 6e3d 4a2f 5fbd 8f12 91bb 205d 883d
00000010: 4421 983d 40c3 92bd 52f4 363c b1d1 f2bb
00000020: 87d0 9fbd b1f5 74bd 9ac9 aabd 33b2 9c3d
00000030: 5df0 f73c e421 c3bc 6204 823d 2557 c8bd
00000040: 0f64 bbbd ed6d f2bc c540 43bd 31f4 9c3b
00000050: 3836 17bd 23f4 afbc a130 adbd 0b8f a9bd
00000060: f194 babd ef98 483d cbdc 77bd 7080 1fbb
00000070: 3612 293d 903b ccbb a282 a73c c2a6 fb3c
00000080: 616d 65bd 9a45 773d de34 393d 691a 2dbd
00000090: 4464 48bd 61d0 91bd 0e52 7dbd 6b04 55bd
000000a0: acab 9fbd 2831 ab3a 9ba5 1d3c 724a 6a3d
000000b0: 4674 5bbd 0f84 73bd 8d24 a3bb 6078 4abd
000000c0: c2f8 9bbc 9fc0 8e3d 0ee3 64bd 3287 27bd
000000d0: e028 ed3a 5c84 9cbd ea90 23bd b27e 92bd
000000e0: a18f 00bd c57c 8ebd 2be6 b23d 7cd1 73bd
000000f0: 4881 a53d 8e09 6d3d cb2d 813d a765 ab3c
00000100: 2b1e 2bbd 7293 7e3d ba6c 683d 50e5 523d
00000110: 3c01 91bd be7a a9bd 3c85 97bd 05bc 7bbc
00000120: 48ea a3ba 01f7 d1bc c3b7 81bd 5d64 8e3d
00000130: c32a 5d3d 4e16 24bb b96f aabd ed3a 923d
00000140: 569e 4abd 711d debc e66c 10bb bc57 a9bd
00000150: e713 a5bd 3457 413d d19a 8ebd 43cb 2cbd
00000160: 3aed 48bd 6232 e73c 1560 b13d 33fb ecbc
00000170: f086 a13c 07d9 2b3d 2b48 643d 5cc9 ccbc
00000180: a0f5 38bd 63ab 88bd fe44 f3bc fc13 863d
00000190: c2f3 1fbd 10f2 a13d 6dfa 203d 816e 64bd
000001a0: a7f8 843d bf78 c6bd d5a8 c63c 81bc 95bd
000001b0: 2b76 8d3d 8ca2 143d 9fb7 14bd f5d0 b6bc
000001c0: 3808 89bd 73a8 023c 7370 9abd 55e5 a8bc
000001d0: b881 ea3c 11d7 6b3d dd7e cfbc 22ae e4bc
000001e0: 3ba0 323b 062e bebd 0c9d 7fbd 0f79 91bd
000001f0: 6adb 733d 60d0 c7bd 3ebb dcbc c7f8 903d
00000200: ddf1 933c 1d61 e43c 633b ab3c 7c83 6c3b
00000210: b94a adbc c633 be3d f6a7 82bc 3d70 e03d
00000220: e66c 763d 5ef5 ff3d 4958 d83c 5721 273d
00000230: 0af7 813d 018f d63d d7f3 933c 24d7 003e
00000240: d446 50bd 4483 dd3d 54b3 09bd 34e8 f33d
00000250: fb61 edbc 27e5 263e 5dcd a83d 06cb 94bc
00000260: 919c 923d 53ba fcbb 7018 323c a5ed 9a3c
00000270: 98de 473d 47de eb3d 6e84 3e3d aa90 91bd
00000280: 334c 203e 789e 983d f66c dbbc 0d3c 4dbc
00000290: 0169 ef3b f441 c03d f64a 333e bfe3 ea3d
000002a0: 8db9 ddbc ab0d 63bd aec0 91bc a33f 04bd
000002b0: 7ec8 96bd f05d a8bd 62ca dd3e 6de1 9e3e
000002c0: d266 043e 9781 b33d 7929 e0bc d499 e73d
000002d0: 9037 743d d758 6ebd 4bbb 0abd 8deb 003e
000002e0: ec54 223e da36 1d3e 28cb 643d 6ca3 673e
000002f0: c25b a43d 7dda d63d 13c2 b53d 1ca5 fa3d
00000300: d336 993d 29af d33b 5640 183e 191f 3d3d
00000310: 6e74 4bbf f37d 3e3e 2c1a 963d 310a a93d
00000320: 918a 883d 9b36 a23c 504a 0fbc 5432 ae3c
00000330: 22d3 a13c d219 d43d fc2a b13d 12d5 ce3c
00000340: 0e21 9b3d 9280 313d 1e48 8e3e 4beb f03d
00000350: 5028 1c3e 27e9 b9bc 34c6 dd3d 00a9 53bd
00000360: 615b ec3b f883 b13d 88ed a33d d5f9 153e
00000370: 4dbc 703d 6cb8 5a3d d2fc 3f3e a3ef 4dbd
00000380: 6370 75bc fb31 203d 90e2 593d 420f 0a3e
00000390: a6e2 443d 8778 a2bc 8f72 c03c bb18 1d3e
000003a0: 9713 613d e338 a13c fc37 b73d 1f9a ae3e
000003b0: 6511 95bb 9058 063e e8d9 743e 4f88 7e3e
000003c0: 20d9 b13c 7235 aa3d 5096 eab9 4b49 863d
000003d0: c0fd a33d 63a4 8b3d fa56 023e a820 3e3e
000003e0: f9c4 023e 883e 0bbd a77f aa3d 0878 113e
000003f0: 3308 803c 402a 1c3e 448e 363b c92a 0dbc
0.058106992 -0.054488458 -0.004427261 0.06658387 0.0742822 -0.07166147 0.011166649 -0.007410251
-0.07803445 -0.059804622 -0.08339234 0.07651176 0.030265981 -0.023819871 0.06348492 -0.097822465
-0.09149944 -0.029593432 -0.04766919 0.004789852 -0.03691694 -0.021478718 -0.08456541 -0.082792364
-0.091104396 0.048973974 -0.0605133 -0.002433803 0.041277133 -0.0062326863 0.020448033 0.030719165
-0.056012515 0.06036911 0.045216434 -0.042261515 -0.048923746 -0.07119823 -0.06184583 -0.052006166
-0.07796416 0.0013060914 0.009622003 0.057199903 -0.053577684 -0.059452113 -0.0049787224 -0.049431205
-0.019039515 0.06970333 -0.0558806 -0.040900417 0.0018093847 -0.07642433 -0.039933123 -0.071530715
-0.031386975 -0.06957392 0.08735307 -0.05952595 0.08081299 0.05787044 0.063075624 0.020922495
-0.041776817 0.062152334 0.056744315 0.05148822 -0.070803136 -0.08275364 -0.07398459 -0.015364652
-0.0012505734 -0.025630476 -0.06333878 0.069527365 0.05399586 -0.0025037709 -0.08322091 0.071401455
-0.049467407 -0.027113648 -0.0022037565 -0.08268687 -0.08060437 0.047202304 -0.06963123 -0.042186033
-0.049054362 0.028222267 0.08660904 -0.028928375 0.019717664 0.04195502 0.055732887 -0.02499836
-0.04515612 -0.066733144 -0.029695984 0.065467805 -0.039050825 0.07907498 0.039301325 -0.055769447
0.06492739 -0.09690999 0.024250427 -0.07311345 0.069073044 0.03628783 -0.036307927 -0.022316435
-0.06691021 0.007974732 -0.07540979 -0.020617167 0.028626308 0.05757815 -0.025329048 -0.027915064
0.002725615 -0.09286122 -0.06240563 -0.07103168 0.05953542 -0.09756541 -0.026944753 0.070787005
0.018059665 0.027878338 0.020902341 0.0036089113 -0.021153795 0.09287219 -0.01594923 0.10958908
0.060162447 0.12497972 0.026409285 0.04080328 0.06345947 0.104764946 0.018060608 0.1258207
-0.050848797 0.108160526 -0.033618286 0.119095236 -0.028977385 0.16298352 0.08242295 -0.018163215
0.07158769 -0.0077126413 0.010870084 0.018912146 0.048796266 0.115170054 0.046513014 -0.071076706
0.15654068 0.074521005 -0.026785355 -0.012526524 0.0073062186 0.093875796 0.17509064 0.1146922
-0.027066017 -0.055432957 -0.017792072 -0.03228725 -0.073624596 -0.08221042 0.43318468 0.3103136
0.12929848 0.08764952 -0.027363526 0.11308637 0.0596233 -0.058190193 -0.033870023 0.12589855
0.15852708 0.15352955 0.055857807 0.22620934 0.08025314 0.10490892 0.08874907 0.12238523
0.0748116 0.0064600897 0.14868292 0.046172235 -0.7947453 0.18602733 0.07329211 0.08253897
0.066670544 0.019801429 -0.008745745 0.021264233 0.019753996 0.10356487 0.08650777 0.025248084
0.07574664 0.043335505 0.27789396 0.117636286 0.15249753 -0.022694184 0.1082882 -0.051674843
0.0072130417 0.08667749 0.0800429 0.14646085 0.058773328 0.053398535 0.18748787 -0.050277364
-0.014980408 0.039110165 0.053194582 0.13482383 0.04806771 -0.019832863 0.023492126 0.15341465
0.054950323 0.019680446 0.08946225 0.3410196 -0.0045491927 0.13119721 0.2391125 0.24856685
0.021709979 0.08310975 -0.0004474395 0.06556948 0.08007383 0.06818464 0.12728491 0.18567145
0.12770452 -0.03399518 0.08325129 0.14205945 0.01562891 0.15250492 0.0027855793 -0.008616158

fc2.bias f4 [64]
00000000: 5703 89bd ed55 bc3c 2d0d bd3d ca1f b1bb
00000010: 7060 9f3a 3a7d f7bb 8c97 ef3d 0486 adbc
00000020: bc16 fb3c 089c b13d 4f06 543c 3a48 b0bd
00000030: c90c ca3c 0efe 113d d2d7 853d 273a 37bd
00000040: 4ed8 883d 9db4 be3c 1eeb e43d 2667 553d
00000050: 5923 77bd bd0d 793d 55f0 a8bc 06f0 393d
00000060: 8a59 e43d b6f0 383d 86ca 7c3e 48c0 bd3c
00000070: af1b 593d 6f0c b23d ccfb 4b3d 79bc 10bc
00000080: 9b51 193d b391 f63c 2ef5 4ebc 80f5 92bd
00000090: fbb3 5c3c 9307 b3bd 28c7 cf3c 24ca 2dbc
000000a0: 93ac 5f3d bb48 5c3d 6712 643d 0928 87bd
000000b0: 3a98 f0b9 bab4 de3d 67c7 7fbd 9416 32bd
000000c0: 22fc 98bd 941c 063d d895 843c ebcc 4d3d
000000d0: 3ba1 c2bd d04d e53e 11f6 a53c e08b 913d
000000e0: 41cc c73d fc9c daba 4530 71bc c8ba 0e3c
000000f0: c4f6 a03d c46e e33a 2b66 b03c 2ca2 bc3d
-0.0669009 0.022990191 0.09231029 -0.005405401 0.0012159478 -0.00755277 0.11698827 -0.021182068
0.030650489 0.08672339 0.012940957 -0.08607526 0.0246643 0.035642676 0.06535305 -0.044733193
0.06681882 0.023279482 0.111776575 0.052100323 -0.060336445 0.060804117 -0.020622412 0.04539492
0.11149891 0.045151435 0.24686632 0.023162976 0.053004917 0.08693778 0.04980068 -0.008833998
0.03743134 0.030098772 -0.012631698 -0.07175732 0.013470645 -0.08741679 0.02536352 -0.010607276
0.05460794 0.0537803 0.055681612 -0.06599433 -0.00045889785 0.108743146 -0.062446024 -0.043478563
-0.074699655 0.032742098 0.016184732 0.050244253 -0.095034085 0.4478593 0.020258935 0.07106757
0.09755755 -0.0016678865 -0.014720981 0.008711524 0.07859567 0.0017351736 0.021533092 0.09210619

fc3.weight f4 [1, 64]
00000000: 2848 783d 20be 3bbe 1265 cbbd a01d e7bd
00000010: 3694 803d d059 d33d ae90 c1bd 0030 27b9
00000020: 6ce6 91bd 3e19 2fbe 4fef a53d 1a1d cbbd
00000030: 3b27 353d 194f 1dbe ca7e 8a3d edba dc3c
00000040: 74f4 b138 a0f0 ef3c 4c66 bbbd 146c 383d
00000050: a181 823a c770 41be 02df a2bd 689b a53d
00000060: 5af4 38be 70e4 b53c 471c bcbe b295 a3bd
00000070: 847b a0bd 1254 b0bd 6add 533d 7a06 403d
00000080: 7dd4 663c faa6 9e3d 0f90 06be 80b9 d6ba
00000090: ef1a bfbd ddba 103d 66b0 963d 96df bfbd
000000a0: d582 a4bd b97e 92bd ba7b cfbd 8a98 d63d
000000b0: c4e5 8fbd 8ade 10be 0f9d c53c 9415 bc3d
000000c0: 51bc 9ebb 6684 d33d abbf eabd 5cbf 2fbe
000000d0: 5bbf e13c a365 1ec0 46de e03d b3cf 12be
000000e0: c7ef 09be 9a0a ae3c 06b0 00bb d5c0 943d
000000f0: a82e d0bd 3b19 2dbe 146c 043d 386e edbd
0.06061569 -0.18334246 -0.09931387 -0.112849474 0.06278269 0.10319865 -0.094514236 -0.00015944242
-0.071240276 -0.17099473 0.08102285 -0.0991766 0.044226866 -0.15362205 0.06762464 0.026944602
8.485551e-05 0.029289544 -0.09150371 0.045024946 0.0009956845 -0.18890677 -0.079526916 0.08086282
-0.18061963 0.022203654 -0.36740324 -0.079875365 -0.07836059 -0.08609785 0.05172483 0.046881177
0.014088747 0.07746692 -0.13140891 -0.0016382188 -0.09331309 0.035334457 0.07357864 -0.093688175
-0.08032767 -0.07153077 -0.10131021 0.10478313 -0.07026246 -0.14147392 0.024122743 0.09183803
-0.0048442264 0.103279874 -0.11462339 -0.17162842 0.027557066 -2.4749534 0.10979895 -0.14337043
-0.13470374 0.02124529 -0.0019636168 0.07263342 -0.10165149 -0.16904156 0.032329634 -0.11593288
